src/TrafficSimulator.Presentation.WPF/ML/current.onnx (onnx, 1146 bytes, 4 tensors)

W1 f4 [8, 16]
000000 bd 12 1b c0 f5 40 88 3f 02 07 1e 40 99 be 0f 3e
       -2.4230187 1.0644823 2.4691777 0.14037551
000010 dc fd aa bf 37 e4 59 3f 24 1b bd be 5e 38 a0 bf
       -1.3358722 0.85113853 -0.3693477 -1.2517202
000020 b7 98 68 bf 1d 9e 45 3f 96 a8 a2 bf 00 54 43 bf
       -0.90858024 0.77194387 -1.2707698 -0.7630005
000030 04 39 de 3f f7 3d a1 3f 08 05 30 bf ac 69 b5 bf
       1.736115 1.2597035 -0.6875768 -1.4172873
000040 f5 34 3b 3e f5 a9 57 3e c7 2a 42 3e 97 82 06 c0
       0.1828192 0.21060927 0.18961631 -2.1017206
000050 2e 56 81 bf 7a 77 5a bf 80 32 ff be c2 d3 e1 be
       -1.0104425 -0.85338557 -0.49843216 -0.4410687
000060 01 2c 90 be 31 48 0a 3f ea cf e3 3e 09 b6 0a c0
       -0.28158572 0.54016405 0.44494563 -2.1673605
000070 92 9b 8f 3e 71 5e 2e 3d 4c 18 9c 3f 27 5b fd 3d
       0.28048378 0.042570535 1.2194915 0.123709016
000080 67 d5 53 3f 8f 01 9b bf 2d 12 5a 3e 45 bd e1 3e
       0.827475 -1.2109851 0.21295996 0.44089714
000090 46 f2 4a 3f 5c 41 bb 3f c9 1b 1a 3f 45 5e 3b 3f
       0.7927593 1.4629321 0.60198647 0.7319072
0000a0 f3 00 b4 be 5f 0a 8f bf 53 c2 ae 3e 13 25 4c 3f
       -0.35156974 -1.117504 0.34132633 0.7974407
0000b0 3f 04 98 be 6b 8f 23 c0 ac 6d 52 bf a5 bd 33 3f
       -0.2969074 -2.5556285 -0.82198596 0.7021125
0000c0 7c 10 be 3f a1 53 61 3d 21 26 95 3f d4 6a f3 3f
       1.4848781 0.055011395 1.1652261 1.9016976
0000d0 33 94 d8 be 10 ed ca 3f 9f b7 15 bf 15 a4 01 3f
       -0.42300567 1.5853596 -0.5848331 0.50640994
0000e0 c9 aa d7 3f 14 b8 c5 bf 92 be b7 be 55 0d 74 be
       1.6848994 -1.5446801 -0.3588758 -0.23833211
0000f0 a1 e2 1b bf 3a 5b e0 be 43 43 3c be d3 a9 13 3f
       -0.60892683 -0.438196 -0.18385033 0.57681006
000100 75 73 ae 3f 30 a7 07 c0 19 d2 2d 3d e2 65 31 3f
       1.3628985 -2.1195793 0.042436693 0.69296086
000110 40 16 e5 be 14 d7 be bf 89 cf c2 be a9 e3 0b bf
       -0.44743538 -1.4909387 -0.38048962 -0.54644257
000120 c8 0b 9e 3f 7a 73 03 40 1d 89 be be 2e 9d 90 be
       1.2347345 2.0539231 -0.37213984 -0.2824492
000130 78 be c2 be 39 8a bf 3e 5f f9 7c bf 1c 7a 97 3e
       -0.3803594 0.37410143 -0.9881801 0.2958535
000140 94 b2 8c bf fd 9d 01 bf 9d a8 0f bf bc b0 2d bd
       -1.0991998 -0.50631696 -0.5611666 -0.042404875
000150 69 1c b3 3f 82 c6 1b 3f 14 7d a4 3e b6 e2 d6 3d
       1.3993045 0.60849774 0.32126677 0.104924604
000160 fe 26 51 bf d3 37 00 3e 04 c1 43 bf 66 d7 3f 3f
       -0.8170012 0.12521295 -0.76466393 0.74938047
000170 78 b1 4e bc 7d 26 0f bf 9f b2 a2 3e a0 9b 8c 3f
       -0.012615554 -0.55918103 0.31776902 1.0984993
000180 f8 60 5d 3e 75 2d ac be e5 43 04 be e4 a0 a5 3e
       0.21619022 -0.3362843 -0.12916525 0.32349312
000190 7b da 97 bf a2 53 e3 3e 4e d6 7a be f4 1c af bf
       -1.186355 0.44399744 -0.24495813 -1.3680711
0001a0 87 c6 b6 3d e1 bd 5c 3f 80 75 8c bf 57 db c8 bf
       0.08924585 0.8622723 -1.0973358 -1.5691937
0001b0 cb 64 5c 3e 2c b3 9c 3f ed c6 21 bd ad 75 0b c0
       0.21522824 1.2242179 -0.03949635 -2.1790574
0001c0 99 4e 45 3f 48 0c 45 bf 83 96 2a 3e 36 28 cf be
       0.77073056 -0.76971865 0.16658978 -0.40460366
0001d0 72 60 3a 3f 81 ff 2d bf 3b c6 c0 bf 09 1e b9 3f
       0.72803414 -0.67967993 -1.5060495 1.4462291
0001e0 1c 80 94 3f 65 f7 7f 3e b6 9b d3 be 5a d0 c9 bf
       1.1601596 0.24996717 -0.41329736 -1.5766709
0001f0 90 a1 8a 3e 72 e3 9e bf 23 3a 7f bf a2 0f 55 3f
       0.27076387 -1.2413161 -0.99698085 0.8322698

B1 f4 [16]
000000 00 00 00 00 00 00 00 00 00 00 00 00 00 00 00 00
       0.0 0.0 0.0 0.0
000010 00 00 00 00 00 00 00 00 00 00 00 00 00 00 00 00
       0.0 0.0 0.0 0.0
000020 00 00 00 00 00 00 00 00 00 00 00 00 00 00 00 00
       0.0 0.0 0.0 0.0
000030 00 00 00 00 00 00 00 00 00 00 00 00 00 00 00 00
       0.0 0.0 0.0 0.0

W2 f4 [16, 4]
000000 de 70 6f 3e 56 7c 6f 3e 78 18 dd be 62 46 5f bf
       0.23382899 0.23387274 -0.4318273 -0.8721677
000010 8b 10 68 3f 0f 3d a9 bf d2 1e 1f 3f b4 6d 25 c0
       0.9065024 -1.3221759 0.62156403 -2.5848207
000020 c3 02 e4 bd ef f4 bc 3f a0 bf f6 3e f2 20 a1 bf
       -0.11133339 1.4762248 0.48193073 -1.2588179
000030 c7 02 2c bf 48 9d 2d bf 98 d6 0f 3f 07 dd 95 bf
       -0.6719174 -0.6781812 0.5618682 -1.1708077
000040 f6 ce 47 be af 11 c4 3a ca 33 05 bf b9 0f e3 3f
       -0.19512543 0.0014958883 -0.5203215 1.7739173
000050 c5 69 04 c0 f9 00 a7 3e ae 39 f1 bf 70 c6 c3 3f
       -2.0689557 0.3261793 -1.8845727 1.5294933
000060 fa 78 7a 3f e5 4f 4b 3e d0 a0 f8 bd ad c4 d2 3f
       0.97840846 0.19854696 -0.121400476 1.6466271
000070 8e 10 a4 be b4 3e 27 bf b0 0d 0c 40 16 e1 8c be
       -0.3204388 -0.6533005 2.1883354 -0.27515477
000080 48 54 84 be bf d4 d5 3e bd f3 06 40 42 63 d7 bd
       -0.25845551 0.41763875 2.1086266 -0.10516979
000090 fe a1 16 3f d2 ec 24 c0 d9 c9 1b bf 6d 76 bf 3f
       0.5884093 -2.5769544 -0.6085487 1.4958016
0000a0 8e 72 9e bf cc 6c da 3f a9 6d 27 3e eb 32 a4 3f
       -1.2378709 1.7064452 0.16350426 1.2828039
0000b0 f2 dd b4 3f 82 46 10 3f e9 91 80 bc 93 2d 2e bf
       1.4130232 0.56357586 -0.015694575 -0.6803829
0000c0 cc 53 31 40 26 4d 23 3f c0 ac 0c 40 70 ad ad bd
       2.7707396 0.63789594 2.1980438 -0.08480346
0000d0 ea 3d ba 3f ec 22 f0 be 36 62 24 3f ee d0 1c 3f
       1.4550145 -0.46901643 0.6421236 0.612563
0000e0 d3 51 b3 3f ff 50 1f c0 a4 fe ef 3e d1 ca 5d 3f
       1.4009346 -2.4893186 0.46873963 0.866376
0000f0 1f 87 9c 3f 23 06 3f 3f 8c 9d d9 bd 5b fc 8f bc
       1.2228736 0.7461874 -0.10625753 -0.017576387

B2 f4 [4]
000000 00 00 00 00 00 00 00 00 00 00 00 00 00 00 00 00
       0.0 0.0 0.0 0.0
